RNN-main/yelpRNN/rnnModel/rnnModel.model (torch, 2652 bytes, 7 tensors)

rnn.weight_ih_l0 f4 [3, 10]
00000000: 5a2d 0cbe 2606 40be 5f8b 0abd 4a9d 41bd
00000010: 133c 633e b291 ebbd 2e48 423e 0067 ecbd
00000020: 0fd5 04be 139c 62be e9e7 6c3d 8ffb 97bd
00000030: 3bf4 7e3e 2ce9 a2bd 945d 5b3e e9e2 12bf
00000040: 35b0 c33e 2bab 98bd bc24 d2bd d7ca 883e
00000050: c6d5 efbd 2d70 c8bd 432e f3bd 88f9 1d3d
00000060: 34d8 7f3e 1a49 343e 0c1e 523e dd2a 76be
00000070: ab40 6ebc 2fff b43c
-0.13689175 -0.18752345 -0.03382432 -0.047269143 0.22190885 -0.115023986 0.18972847 -0.11543083
-0.129719 -0.2212985 0.057838354 -0.07421028 0.24897854 -0.0795463 0.21422416 -0.5737749
0.38220373 -0.07454523 -0.10260913 0.26717255 -0.11710696 -0.09787021 -0.11874058 0.03856805
0.24984819 0.17606011 0.20519274 -0.24039789 -0.014541785 0.022094337

rnn.weight_hh_l0 f4 [3, 3]
00000000: de4f 8bbe 7fd9 a13e f82b 8a3d fc2c 6e3e
00000010: e7ac a5be 93ca d53e 6e4f 1cbf ed0a aabe
00000020: c96a 333d
-0.2720937 0.3161125 0.067466676 0.23259348 -0.32358477 0.41756114 -0.610587 -0.3321146
0.04380301

rnn.bias_ih_l0 f4 [3]
00000000: 4e7b 3c3f d91a e43e b0cd 1abc
0.7362565 0.44551733 -0.009448454

rnn.bias_hh_l0 f4 [3]
00000000: 294b 913d 1726 02be 47e1 6dbd
0.07094414 -0.12709843 -0.05807617

fcHidden.weight f4 [1, 3]
00000000: 2629 74be d748 943b dfa1 663e
-0.23843822 0.0045252847 0.22522686

fcFinal.weight f4 [10, 4]
00000000: ed17 0bbf 1a48 7a3e 3cf7 15bf 11b8 95be
00000010: 681c 47bd c574 a63d f3fd dc3d 195b f9be
00000020: e0d8 073f 03f3 ad3e 4c18 6fbe e9ea da3d
00000030: 9006 85be 7f9e bfbe 2aaa cfbe c36b 413e
00000040: 859f b73e a22b 1d3e da48 8dbd a880 c1be
00000050: 0f30 8cbd 2b19 133f a936 b5bc 4aca f93d
00000060: 63d9 3abe 558e 2abe eb10 94be b8dd 60be
00000070: 3a0a 4e3d 4054 e5bd 288c 583e cb90 b93c
00000080: 9ecb 5fbd 1234 cf3e d5e7 1dbe fb2f 283d
00000090: 5069 b73e 712f 43be b527 f5bc ef33 c0bd
-0.5433338 0.24441567 -0.58580375 -0.29241994 -0.048611075 0.08127741 0.107906245 -0.48702314
0.530653 0.33974466 -0.23349112 0.10689337 -0.2598157 -0.3742561 -0.40559512 0.18888764
0.3586389 0.15348676 -0.06898661 -0.3779347 -0.06845104 0.5746028 -0.02212079 0.12196787
-0.18246989 -0.16655858 -0.28919157 -0.21959579 0.05030272 -0.1119771 0.21147215 0.02265205
-0.054637544 0.40469414 -0.15420468 0.041061383 0.35822535 -0.19061066 -0.02992616 -0.093849055

fcFinal.bias f4 [10]
00000000: 8987 75be b3cd bdbe 5359 3fbe 637b d9be
00000010: a655 8dbd 0e7f 4fbc 5cfa 063d 435a 0bbe
00000020: e116 8e3e 1600 8d3d
-0.23977484 -0.37071 -0.18686418 -0.4247695 -0.06901102 -0.01266457 0.032953605 -0.13608651
0.2775183 0.06884782
